final_chatbot/data.pth (torch, 20074 bytes, 6 tensors)

l1.weight f4 [8, 308]
000000 93 34 d3 3f 25 13 36 be 09 4c 2a 3f 1e 2a a9 3e
       1.6500419 -0.1778074 0.6652227 0.33039945
000010 b5 a4 30 c0 48 c2 8d be e0 31 cd 3f d0 6d b8 3f
       -2.760053 -0.27687287 1.6030846 1.4408512
000020 a1 f9 0e 3b a7 db 00 bf 52 78 3b 40 5f 42 26 3f
       0.002181627 -0.5033516 2.9292188 0.64945024
000030 95 c1 03 3f ad 7d 52 40 fb 28 24 3f 6d fc 1a 3f
       0.5146726 3.2889206 0.6412503 0.6054142
000040 d3 87 e1 3c e9 bb 88 be 48 bf 66 3f 92 0f 5c bf
       0.027530586 -0.26705864 0.9013562 -0.8596126
000050 53 09 18 bf f9 e2 36 c0 42 e8 15 3f 5d aa d2 3f
       -0.5938923 -2.8576033 0.5855752 1.6458241
000060 e9 5d 12 3f 31 6d 28 40 c0 47 74 40 36 79 95 3e
       0.57174546 2.6316645 3.8168793 0.2919404
000070 49 06 f8 bf 6e 53 28 3f ad ca bc 3f 02 af 46 3f
       -1.9376918 0.65752304 1.4749352 0.7761079
000080 3d 6e e3 3d de 64 77 3f 4d 24 9d bf af 3e 95 bf
       0.11105011 0.96638286 -1.2276703 -1.1659755
000090 46 31 5b 3f 42 ca cc 3e 29 75 74 40 1f 3e 8a bf
       0.8562206 0.3999806 3.819651 -1.0800208
0000a0 09 62 dc 3d e1 12 3f 40 39 a7 05 3f 82 77 7a 3f
       0.10760886 2.9855273 0.52208287 0.97838604
0000b0 e2 eb 2b be 78 54 fc 3f 06 7f 01 3f 3d 1b 1d 3f
       -0.16789201 1.9713278 0.5058445 0.6136969
0000c0 07 9d eb 3f 5a e6 bc bd a4 dd 9c bd 5c d6 00 be
       1.8407296 -0.092236236 -0.07659462 -0.12581772
0000d0 35 3d 3e 3f d1 bf b7 be 27 55 80 3f 8e 38 5e 3c
       0.74312145 -0.35888532 1.0025986 0.013563288
0000e0 7e 51 f1 3e 48 88 37 bf 05 f8 3e 3e ba 36 bc 3f
       0.47132486 -0.71692324 0.186493 1.4704201
0000f0 e0 71 7d 3f 82 33 b4 3f 5b 89 5c 3f 31 7c d7 3f
       0.99001884 1.4078219 0.8614709 1.6834775
000100 96 71 63 40 66 cf 5c be 3d 5d cb 3f bd a9 d7 3f
       3.5538077 -0.21563491 1.5887829 1.6848675
000110 33 7d 91 bf 84 98 0c 40 ab 65 28 40 d7 f0 d0 be
       -1.1366333 2.1968088 2.6312053 -0.40808746
000120 45 b0 04 3f 4e 3d 25 3f 7f bb c4 3e 4d 43 0b 40
       0.51831466 0.6454667 0.38424298 2.1759827
000130 eb 3e 03 3c 9d 29 cb 3e 0f 60 73 3e 40 42 a4 3f
       0.008010606 0.39680186 0.23767112 1.2832718
000140 c6 b0 eb 3e 6f 99 4e bf ce 50 e8 3f 3e 60 d6 3f
       0.46033305 -0.8070287 1.814966 1.6748121
000150 a8 86 32 3f 76 57 c0 3e 58 2e 3c 40 4e e1 e1 be
       0.6973672 0.37566727 2.9403286 -0.44117206
000160 6f dd 06 3e 15 56 e3 3e 17 f2 83 3f 47 bf dc be
       0.13170408 0.44401613 1.0308255 -0.43114683
000170 7d 0e ca 40 aa d3 22 40 f9 45 9c bf d5 67 07 c0
       6.3142686 2.544169 -1.2208854 -2.1157124
000180 ac 05 cf 3f 8c d1 b7 bf 54 c5 23 c0 85 74 79 bf
       1.6173606 -1.4360824 -2.558919 -0.9744342
000190 2d 55 8b 3d e5 c7 47 bf ba 76 33 bf ce e3 97 3f
       0.06803355 -0.7803939 -0.7010304 1.1866395
0001a0 08 7d ca bf a7 47 30 c0 a4 66 26 40 d5 39 eb bc
       -1.5819407 -2.7543733 2.6000147 -0.0287141
0001b0 10 03 3d 40 97 be d3 3f c0 21 5a 3f b2 f5 7b bf
       2.953312 1.6542538 0.8520775 -0.98421776
0001c0 6b fb 2b bf b3 ee ba be 78 35 fe be cb 65 a9 bf
       -0.6718051 -0.36510238 -0.49650168 -1.323419
0001d0 e1 e8 7c be 13 7c 8e bf 12 cc 77 40 5f 67 79 40
       -0.24698211 -1.1131614 3.8718305 3.8969343
0001e0 27 7c 93 bf 34 96 d1 3f 73 b7 55 3e 0f c7 6c 3e
       -1.1522263 1.6373963 0.20870762 0.2312281
0001f0 65 c1 00 3f d6 9a 9e 3f 82 44 1d 3f 7e e8 42 3f
       0.50295097 1.2391002 0.6143266 0.76136005
000200 d6 37 75 bf b2 0e 37 bf 9d 5b 79 40 4b bc 3a 3f
       -0.95788324 -0.715068 3.8962166 0.7294356
000210 14 13 ec 3e 6a 24 84 3f bb 8f 46 be 31 e0 3f 3f
       0.46108305 1.0323613 -0.19390766 0.74951464
000220 ab a7 3f 3f c6 57 3e 3f 66 b8 1c be d5 cb e2 be
       0.74865216 0.7435268 -0.15304717 -0.44296136
000230 d4 e4 5b 40 7a 4e 02 40 c2 a0 00 40 1e cb 1e 3f
       3.4358416 2.0360398 2.0098119 0.6202868
000240 61 7d c5 3f 59 ea 6f 40 28 2f 35 3e 09 d7 20 be
       1.5428888 3.7486784 0.1769377 -0.1570703
000250 88 c8 ab 3f 5b 30 92 bf 25 f5 e8 be e6 41 84 bf
       1.3420572 -1.1421007 -0.4549953 -1.0332611
000260 00 8f 9e 3f 07 78 85 3e 97 23 38 c0 21 78 1c 3d
       1.238739 0.26068136 -2.8771722 0.0382005
000270 e2 f4 1a bf 44 61 1f be 6c 85 4d 3e 01 0e e1 3d
       -0.6052991 -0.15564448 0.20070428 0.10988999
000280 05 ea 8e 3f b2 ef ac 3f 3a 71 e2 3e 91 60 e4 3e
       1.1165167 1.3510649 0.4422701 0.44604924
000290 c0 a9 30 3f 00 30 83 3f 61 cf cd bf 9d f7 ed 3e
       0.6900902 1.0249023 -1.6078912 0.46477976
0002a0 c7 1a 32 40 8d b8 2b bf 00 40 25 3f 52 73 66 3f
       2.7828844 -0.6707848 0.6455078 0.90019715
0002b0 97 27 d9 be ed 3f 74 be 2e 01 42 3f ae 38 c4 bd
       -0.42413017 -0.23852511 0.7578305 -0.09581123
0002c0 7c 60 41 bf 8b 1a 75 bf 16 24 86 3f fc 3d 8f bf
       -0.7553785 -0.95743626 1.0479763 -1.1190791
0002d0 25 c7 ae 3d 6f d0 46 3f 0f c1 22 3f 09 ea 37 40
       0.085340776 0.77661794 0.63575834 2.8736594
0002e0 ff a9 99 3e cb f3 28 3f 6c 09 fd 3e 27 17 94 3f
       0.3001251 0.65997 0.4942125 1.1569566
0002f0 2e 99 1a bf 6a 5c c7 3e ad 99 68 3f 13 a7 8b 3f
       -0.60389984 0.38937694 0.9085949 1.0910362
000300 de b5 16 3f 71 00 ac be 9c 4c 0b 40 69 3a c7 3f
       0.5887126 -0.33594087 2.1765509 1.55647
000310 87 59 17 40 f3 f3 fc 3f 15 52 98 3f 75 45 c1 3f
       2.3648393 1.9761947 1.190005 1.5099322
000320 b7 21 8f 3e c2 bf 34 3e 9b f2 54 3e 16 a3 5f 3e
       0.2795541 0.17651275 0.20795672 0.21839556
000330 81 58 b1 bd 06 a5 9c 3f 5c b2 85 3e ff ea e7 3f
       -0.08659459 1.2237861 0.2611264 1.811859
000340 f8 85 35 bd 4e 44 8f bf 71 a2 d3 3f b5 85 9c 3f
       -0.044317216 -1.119272 1.6533948 1.2228304
000350 d6 00 0a c0 1d af 8a bf e4 b4 f4 3f d0 fb 11 40
       -2.156301 -1.083469 1.9117703 2.2809944
000360 d8 27 c6 bf c0 4d 07 bf 40 ab a1 3e 34 94 a1 3f
       -1.5480909 -0.5285301 0.31575966 1.2623353
000370 0e 4c 13 3f 45 37 e5 3f 0d 66 bf 3f 39 1e 01 40
       0.57537925 1.7907492 1.4953018 2.0174696
000380 c2 6e 2b 3f ea 59 2b 3f 53 08 86 bf d0 a6 c8 3f
       0.6696588 0.6693407 -1.047129 1.5675907
000390 80 94 ad 3f 2b 20 7d bf 94 cd c4 3f 23 35 9a 3f
       1.3560944 -0.9887721 1.5375237 1.2047466
0003a0 2d 74 e9 be 14 24 7d 3f 52 35 9c 3f 8f a2 ac 3e
       -0.45596448 0.98883176 1.2203772 0.33717772
0003b0 35 d6 90 3e 5c ca 11 bf 05 62 df 3e 92 4e 23 40
       0.28288427 -0.569494 0.4362947 2.5516706
0003c0 41 e6 ee 3f 0c 48 22 3f 6d e1 33 3f ab 42 e4 be
       1.8664018 0.63391185 0.7026585 -0.44582114
0003d0 b8 ae 1f 40 00 ba d0 3f 22 55 90 3f 6d 6e 8a 3f
       2.495039 1.6306763 1.127598 1.0814949
0003e0 bf 95 21 be 61 16 ab 3f 19 e5 30 3f 9a 03 a7 3f
       -0.1577978 1.3366205 0.69099575 1.3047974
0003f0 ff 44 c3 3f 93 96 10 3f 7b 6b 30 3f a1 2e f5 bf
       1.5255431 0.5647976 0.68914 -1.9154855

l1.bias f4 [8]
000000 ae 8f 75 3f 83 a5 1f 3f 2f 88 25 3f a8 6f 3a 3f
       0.9592236 0.62361926 0.64660925 0.72826624
000010 89 1a a1 3f ab fe 2c 3f d9 8f 43 3f d5 26 65 3f
       1.2586223 0.6757609 0.7639137 0.8951238

l2.weight f4 [8, 8]
000000 8d 0e f3 bf cf 55 d9 3f fc 70 b9 3f 33 d0 31 3f
       -1.8988816 1.6979312 1.4487605 0.6945831
000010 fd 75 ce bf 98 a2 65 3f e5 b3 c6 3f d8 30 21 40
       -1.6129757 0.89701223 1.552365 2.5186062
000020 b9 ac 89 bf 43 ef 55 3f 54 3f e8 3f 61 af ed bd
       -1.0755836 0.8356821 1.8144326 -0.116057165
000030 18 60 be 3f 14 00 96 3f d9 22 26 c0 19 21 28 3f
       1.4873075 1.1718774 -2.595877 0.65675503
000040 0f f3 2f bf 50 6b c8 3f 88 85 9a 3f 08 4c eb 3f
       -0.68730253 1.5657749 1.2072 1.8382578
000050 30 ef fd 3f 95 3b d3 bf 26 c0 8a 3f 13 1c 48 bf
       1.9838619 -1.6502558 1.0839889 -0.7816784
000060 9e 6b 02 3f 81 cf b1 be 12 f6 9f bf 14 32 44 40
       0.5094546 -0.34728625 -1.249697 3.0655565
000070 d2 90 ad 3f 3a 9a 34 40 25 9d c8 3f 4e 18 c1 bf
       1.3559821 2.8219132 1.5672957 -1.5085542
000080 27 44 ac be ce 22 95 3d 4c 1a c7 bd 50 9b 41 be
       -0.33645746 0.07282029 -0.097218126 -0.18906903
000090 54 33 62 be dc e3 60 3d 3a a3 81 be 1e 24 84 be
       -0.22089893 0.054904804 -0.25319844 -0.25808805
0000a0 f7 fa 71 40 ec 24 00 40 28 ec e7 3f 68 a1 48 3f
       3.7809427 2.0022535 1.8118944 0.78371286
0000b0 3a c3 70 3e 8f 0e 8a bf 9f 7b fe bf 60 91 bb bf
       0.23511973 -1.0785693 -1.9881476 -1.465374
0000c0 8b 51 d3 bf fe 16 be 3f 79 80 96 3f 29 86 12 bf
       -1.650926 1.4850767 1.1757957 -0.5723596
0000d0 0e d8 ba 3f a0 ba 95 3f 8a 7d 16 3f 3e c9 8e bf
       1.4597185 1.1697578 0.5878531 -1.1155164
0000e0 42 09 49 3f c6 63 c5 bf 5d b8 fc be 59 50 96 bf
       0.7852975 -1.5421073 -0.49359408 -1.174327
0000f0 c3 16 c8 3f 09 9d 30 40 82 8d 74 3f b0 f2 44 40
       1.5631946 2.7595847 0.95528424 3.0773125

l2.bias f4 [8]
000000 1c ed 35 be 3b ac d9 be 64 50 8d 3f 2b 3c ec be
       -0.17766231 -0.42514214 1.1040158 -0.46139655
000010 ff c7 de bd ed 2c 3b 3f ee c5 8f be 93 80 66 3f
       -0.1087799 0.73115426 -0.28080696 0.9003994

l3.weight f4 [58, 8]
000000 eb ef 7b bf 7b 51 53 bf 30 d1 45 bf 24 0e 54 bf
       -0.9841296 -0.82546204 -0.7727232 -0.82834077
000010 78 1c c8 3d 67 da 43 bf 35 13 70 bf 58 b3 a2 bf
       0.09771055 -0.7650513 -0.9377931 -1.2710981
000020 38 ce b1 bf 39 e5 d7 c0 bb 9a be c0 59 b9 84 bd
       -1.3891058 -6.7467313 -5.956388 -0.06480665
000030 b3 95 7a be 57 97 31 bd 4b 0f de c0 67 93 80 3f
       -0.24471168 -0.04335722 -6.939367 1.0044984
000040 87 08 59 3e 4e 3d 9d be eb 0b 8c 3e 31 e6 c2 be
       0.21194659 -0.30710834 0.27352843 -0.38066247
000050 f8 78 cd bd 7a 48 9e be 0b 3a 2c 3f 08 42 7e c0
       -0.100328386 -0.3091467 0.67276067 -3.9727802
000060 75 44 01 be dc 89 9f 3f ed ec 9f c0 f7 da ba bf
       -0.1262377 1.2463946 -4.9976716 -1.4598073
000070 30 51 1e 3d c4 75 8a bf 0e 33 a8 c0 d9 b2 c7 3d
       0.038651645 -1.0817189 -5.2562323 0.09750909
000080 8c a2 5b be 21 ee 98 c0 5a e1 fb bf 4e 3c c3 3f
       -0.21448725 -4.7790685 -1.9678147 1.5252779
000090 fd 7b 17 be 4f 76 87 c0 78 24 bd be c1 56 8e bf
       -0.14793392 -4.233192 -0.36941886 -1.1120225
0000a0 ca 5c ac bd 6e de 4b 3f 75 9c dc bf 77 7e 35 c0
       -0.084161356 0.79636276 -1.7235247 -2.8358438
0000b0 9e ac ab be f7 a8 5f c0 04 00 56 3f 0d 89 4c bd
       -0.33530134 -3.4946878 0.83593774 -0.04993539
0000c0 6f b8 a9 c0 cd 2c 73 c0 97 f9 5d c0 6e 8a 6c 3f
       -5.303764 -3.7996094 -3.4683588 0.92398727
0000d0 98 ee 7a be 3a 70 ae bf 21 b8 84 be 94 91 8c be
       -0.24505079 -1.3627999 -0.2592173 -0.27454817
0000e0 09 88 39 bf e0 82 bf c0 b1 87 3f 3f ea 60 de 3e
       -0.724732 -5.984726 0.74816424 0.43433315
0000f0 ef 73 8d 3e 96 26 0c be 89 d5 61 bf 79 7f 89 bf
       0.27627513 -0.13686594 -0.88216454 -1.0742027
000100 4e 27 10 bf 89 96 eb 3f 2e 81 25 bf 87 27 4e bf
       -0.56309974 1.8405315 -0.6465024 -0.80529064
000110 cc 21 7a be 1d 14 57 3f f8 71 18 c0 d9 64 55 c0
       -0.24426955 0.84015065 -2.381956 -3.3342803
000120 83 2c 4a bf 3b 71 87 c0 33 ee 84 3e e2 89 2e 3f
       -0.7897417 -4.232572 0.25962982 0.6817914
000130 1c b9 86 3d e2 b3 7f 3e 90 bd 61 bf 47 31 d2 bf
       0.065782756 0.24970964 -0.88179874 -1.6421288
000140 47 f9 06 c0 33 ad 36 bf ad ca 8f c0 dd 19 dc 3e
       -2.1089647 -0.7135803 -4.4934907 0.42988482
000150 44 bf 98 be e0 45 31 c0 1a 95 2e c0 da c9 94 3b
       -0.29833424 -2.7698898 -2.7278504 0.004540664
000160 4c ff 50 3f 41 1c 9b 3f 22 bd af c0 e0 5e a0 c0
       0.8163955 1.2117997 -5.4918375 -5.0115814
000170 07 77 a7 be 55 49 d7 bf 45 10 b7 bf a3 9b 55 3f
       -0.32707998 -1.6819254 -1.430184 0.8344061
000180 3d 7f 6c c0 f3 17 5b 3f 50 d5 8e c0 b4 b6 ad be
       -3.695266 0.8558342 -4.463539 -0.33928454
000190 96 04 dd bd 22 e3 49 bf c9 bb c7 c0 60 29 ed 3e
       -0.1079189 -0.788622 -6.241673 0.4632063
0001a0 28 4d 22 c0 00 ea 68 bf fe c4 b1 c0 24 89 92 c0
       -2.5359592 -0.90982056 -5.555297 -4.579241
0001b0 60 ca 6a 3c df 27 95 3f 26 44 89 c0 1d e7 f0 3f
       0.0143304765 1.1652793 -4.289569 1.882053
0001c0 35 f4 6d 3f e1 15 1e c0 e8 33 41 c0 e8 e5 80 c0
       0.92950755 -2.4700854 -3.018793 -4.0280647
0001d0 af 61 a5 3e 81 8c b0 bf 7f 4f a1 c0 f6 a6 e3 3f
       0.3230109 -1.3792878 -5.040954 1.7785327
0001e0 e1 ec 85 3d cc a1 7c be 2e ca 0d 3f 64 4d a4 3c
       0.06539322 -0.24671096 0.55386627 0.020056434
0001f0 de e3 78 3e db 7b 82 be aa 77 15 3d 1d 00 dc bf
       0.24305674 -0.2548512 0.036491074 -1.7187535
000200 1d d0 d2 bf 5e 66 80 3f 45 e8 94 3e 13 78 a4 bf
       -1.6469761 1.003124 0.29083458 -1.2849144
000210 3f 2e ad be 85 9e bd bf f8 8b 4d 3f 6a 5f 90 bf
       -0.33824345 -1.4814001 0.802917 -1.1279118
000220 2d a6 c2 3e 5c 3a a9 bf 45 6b 8c c0 58 68 94 bf
       0.38017407 -1.3220935 -4.3880944 -1.1594343
000230 23 5d b2 3e 9d 39 88 c0 44 44 52 c0 61 90 16 3f
       0.34836683 -4.257033 -3.2854166 0.58814055
000240 14 19 4d bf 98 c0 21 bf 88 f7 88 bc 8d 25 67 be
       -0.8011639 -0.631845 -0.016719595 -0.22572918
000250 3b be a4 3e 05 b5 b2 c0 4d 25 0c 40 19 88 e1 bf
       0.32176384 -5.584597 2.1897767 -1.7619659
000260 36 c9 75 be 0a fc 55 3d 02 62 20 be 80 07 b1 c0
       -0.24002537 0.052242316 -0.15662387 -5.5321655
000270 ed ec 67 be 2f 06 de 3e 27 28 e0 be 40 3a b3 3f
       -0.22648974 0.43364093 -0.43780634 1.4002151
000280 97 9f d2 c0 19 68 8c c0 9a 35 96 bf bc 19 49 c0
       -6.581981 -4.387707 -1.1735108 -3.1421957
000290 d8 60 fa bd cd ba 33 3f 00 86 5f c0 91 d7 da 3f
       -0.12225503 0.7020691 -3.4925537 1.7097036
0002a0 97 a1 1b 40 97 c8 fc c0 3e de e7 be 81 bf 42 be
       2.4317377 -7.899486 -0.45286745 -0.19018365
0002b0 c6 b4 b2 be 8c 82 a1 be bf df 4c c0 9c 72 e1 bf
       -0.34903544 -0.31544912 -3.2011564 -1.7613101
0002c0 f9 6c 0c c0 7e 97 09 c0 ee bb 9d bf f8 d7 49 bf
       -2.1941512 -2.1498713 -1.2322977 -0.7884517
0002d0 fc 1d b1 bd fb 2e b4 c0 3d 66 c6 3e c5 be c6 3e
       -0.08648297 -5.630735 0.38749877 0.3881742
0002e0 a1 88 75 c0 3e 0d ad 3f de 1d 25 3f 7b f6 16 bf
       -3.8364642 1.3519666 0.644987 -0.5896985
0002f0 7e 9b 6c be 26 ca 29 3e 9d ca 3b 3e 28 e2 be c0
       -0.2310619 0.1658102 0.1833901 -5.965107
000300 34 c9 a1 3f f1 08 c1 3e 41 60 b0 bf 5f f6 5f c0
       1.2639527 0.37702134 -1.3779374 -3.4994123
000310 c2 16 0b 3e 72 16 a8 bf cd f7 e1 3c 31 ee 1d bf
       0.135829 -1.313185 0.027583981 -0.61691576
000320 e3 63 d9 3f 33 8d 5b c0 f8 f4 f6 3d 63 24 a0 bd
       1.6983608 -3.430493 0.12058443 -0.0781944
000330 f8 44 25 3d 05 db b3 c0 a7 86 0f bf da 94 e3 bf
       0.040348977 -5.620486 -0.5606484 -1.7779801
000340 e7 e7 88 3f 58 2b 85 bf 77 a1 5a c0 84 61 2f c0
       1.0695771 -1.0403852 -3.416105 -2.740327
000350 ce 99 2d 3e c3 da 75 be 2d 49 b2 bf 42 02 e7 3e
       0.16953203 -0.24009232 -1.3928581 0.4511891
000360 3a f7 cc c0 07 7d 45 3f 22 d3 34 bf c7 8c d0 be
       -6.405179 0.771439 -0.70634663 -0.40732405
000370 a0 ee 6b bd 5f 18 ba bf d7 bc 04 3f 23 bb 0f bf
       -0.057600617 -1.4538687 0.51850647 -0.5614492
000380 e8 d3 ac 3f 2a 36 fe 3f eb b7 7a bf 32 76 95 c0
       1.3502169 1.986028 -0.97936887 -4.670678
000390 36 bc 22 be 92 d3 1c bf fa 8b b5 c0 37 4c 7e 3e
       -0.1589211 -0.6126033 -5.673337 0.24833761
0003a0 b6 fb 6c be 3b 33 7a c0 8c fd 13 be 90 f0 c5 bf
       -0.23142895 -3.9093769 -0.14452189 -1.5464039
0003b0 0e c2 15 3e cb 0c b8 3f e9 5a 87 c0 82 6a e3 c0
       0.14624807 1.4378904 -4.2298474 -7.1067514
0003c0 89 27 74 bf 00 56 ea bf 57 2d 26 c0 d1 10 05 3e
       -0.95372826 -1.8307495 -2.5965173 0.12994696
0003d0 12 9b 3a 3e 30 c4 68 bc 9f 69 9f be ec c1 08 bf
       0.18223217 -0.014206931 -0.3113527 -0.534209
0003e0 88 27 80 c0 e2 02 75 c0 d7 86 7c c0 42 af 04 c0
       -4.0048256 -3.828301 -3.94573 -2.073197
0003f0 e2 d1 9d be d0 31 0c 40 b7 7f c6 bf 17 13 d8 be
       -0.3082419 2.1905403 -1.5507725 -0.42202064

l3.bias f4 [58]
000000 99 d9 ec be 35 63 58 3f 7b f6 c0 3e f9 a4 4a bf
       -0.46259764 0.8452638 0.3768805 -0.7915798
000010 6b ff 11 c0 de cb 2b 3e e0 6c 19 bf fc 22 cd 3e
       -2.2812145 0.16776988 -0.59931755 0.40065753
000020 8d 13 f5 bf c0 c3 ae be bf 38 a6 bf 15 fa 46 3e
       -1.9146591 -0.3413372 -1.2986068 0.19431336
000030 e3 db 9d be ff 03 93 3d 71 60 01 3f a2 ab ac be
       -0.30831823 0.071784966 0.5053778 -0.33724695
000040 97 09 a1 bf 0c 27 72 3e 86 01 48 c0 fa 39 c5 3f
       -1.2581052 0.23647708 -3.125093 1.5408318
000050 dd 39 26 3e 77 7e 12 c0 7b 5c 98 be 54 c8 1c c0
       0.1623301 -2.2889688 -0.29758057 -2.449727
000060 db 03 99 bf 9f dc 89 bf bd 54 6a 3e 5b b0 7d bf
       -1.1954302 -1.0770453 0.22883888 -0.9909722
000070 51 81 8a 3e e4 24 c9 bf 3a 38 c0 bf 9c 0c 69 3f
       0.27051786 -1.5714383 -1.5017159 0.91034865
000080 e2 7e 86 bf 04 93 3a 3f 95 ef bf 3e 0a f5 e5 bf
       -1.0507472 0.7288058 0.37487474 -1.7965405
000090 4f c9 23 3f 27 ca d0 bf 51 68 23 c0 ab 16 86 3e
       0.6397905 -1.6311692 -2.553242 0.2618917
0000a0 ec f2 c6 bf 3c c4 99 be 14 67 6c be 5a 1e 40 c0
       -1.5542884 -0.30032527 -0.23086196 -3.0018525
0000b0 03 3a 3f bf a6 3d 8e 3f 9a 74 72 3f b2 da e1 bf
       -0.74697894 1.1112564 0.9470917 -1.7644866
0000c0 52 46 92 be 27 0e 65 3f 88 8a 9b be fd e3 03 bf
       -0.28569275 0.8947472 -0.30379128 -0.5151976
0000d0 2a 1e 1d 3e 5a 0b ce 3d 72 02 16 3f 31 ef 7e 3e
       0.15343538 0.10060759 0.5859748 0.24895932
0000e0 c9 47 c2 be ae da 02 c0
       -0.37945393 -2.0445971
